cifar_net_fcn.pth (torch_old, 123464 bytes, 2 tensors)

fc.weight f4 [10, 3072]
0	0x3c89ad2b	0.016806206
1	0xba3760c5	-0.0006995316
2	0xbc9a934f	-0.01886907
3	0xbc436d1b	-0.011927868
4	0xbc446f8e	-0.011989487
5	0x3bb86b1b	0.0056280023
6	0x3c6edf0a	0.014579544
7	0xbcac8676	-0.02106021
8	0x3c5fc050	0.013656691
9	0xbbbcbb70	-0.005759649
10	0xbc36ea4e	-0.011164261
11	0xbc6c0767	-0.014406062
12	0xbc5562c0	-0.013024032
13	0xbc1e36fa	-0.009656662
14	0xbd19af71	-0.03752083
15	0xbcf7c998	-0.030247495
16	0xbceea10e	-0.029129531
17	0xbc6da889	-0.014505514
18	0xbc606580	-0.0136960745
19	0xbd147ca8	-0.036251694
20	0xbd08db2f	-0.033412155
21	0xbba2703b	-0.0049572266
22	0x3cad9622	0.021189753
23	0xbca84863	-0.02054233
24	0xbcd51a11	-0.026013406
25	0xbc16c8db	-0.009203161
26	0x3b18f8ba	0.0023341612
27	0xbab8db94	-0.0014103525
28	0x3b9a9dca	0.004718517
29	0x3ca8f6ef	0.02062556
30	0x3d2d2145	0.042268056
31	0x3d29db2f	0.041468795
32	0x3c465f42	0.012107672
33	0xbc3367d7	-0.01095005
34	0xbc97f7fb	-0.018550863
35	0x3bdf7075	0.006818826
36	0x3ce6fc18	0.02819638
37	0x3c64f271	0.013973818
38	0x3c85e25d	0.01634329
39	0xbae31eaa	-0.0017327864
40	0x3a0334d8	0.0005005128
41	0xbc65d078	-0.014026754
42	0x3bfd3c52	0.007728138
43	0x3c86fe8a	0.016478796
44	0x3cb783ae	0.022401657
45	0x3cb8b4f7	0.022547228
46	0x3cd25700	0.02567625
47	0x3c145fa3	0.009056005
48	0x3c01308f	0.007885112
49	0x3b59bc38	0.003322376
50	0x3b61900d	0.0034418136
51	0xbca6a270	-0.020341128
52	0xbb8d11fb	-0.004305122
53	0xbc2aac42	-0.010417046
54	0x3afe0a2d	0.0019381695
55	0xbbc6772d	-0.0060566873
56	0xbcb8fbd9	-0.022581028
57	0xbc938243	-0.01800645
58	0xbc6e57ce	-0.014547301
59	0x3ba55815	0.0050459006
60	0x3c04c515	0.008103629
61	0x3ac9c975	0.0015395122
62	0x3ce25a79	0.027631031
63	0x3d58a39c	0.052890405
64	0xb9c55772	-0.0003763992
65	0xbcd0cb6c	-0.025487624
66	0xb8fef048	-0.0001215642
67	0xbba672e0	-0.005079612
68	0x3c6f6119	0.014610552
69	0x3bc1ac0c	0.005910402
70	0xbcd8ad21	-0.026449742
71	0xbca72340	-0.02040255
72	0xbae665d2	-0.0017577952
73	0xbcda0d38	-0.026617631
74	0xbcff1b46	-0.031140935
75	0x3c919e54	0.017775692
76	0x3af24122	0.0018482546
77	0xbb1b6a76	-0.0023714579
78	0xbc2f194b	-0.010687183
79	0xbcbb1d5d	-0.02284115
80	0xbc608e49	-0.013705798
81	0xbcf8304a	-0.030296464
82	0xbbae9980	-0.005328357
83	0xbd03ec9c	-0.03220807
84	0xbd25fa59	-0.040521953
85	0xbc6e401a	-0.01454165
86	0x3cb35083	0.021888977
87	0xbcc871a9	-0.02446826
88	0xbcba6362	-0.022752468
89	0xbc893879	-0.016750561
90	0x3c1a51da	0.009418929
91	0x3c98f526	0.018671583
92	0x3c5dcd5a	0.013537729
93	0xbd0b04b7	-0.033940043
94	0xbba6ea4b	-0.005093848
95	0x3d366abc	0.044535384
96	0xbc8b9e1e	-0.01704317
97	0xbb8dab43	-0.0043233945
98	0xbb33e27b	-0.0027448225
99	0x3c29c577	0.010362021
100	0x3ce8a3a9	0.028398352
101	0xbc26af4c	-0.01017363
102	0x3c17fafa	0.009276146
103	0xbc45e4f3	-0.0120785115
104	0xbc798e2d	-0.015231651
105	0xbce9a0d0	-0.028519064
106	0xbcdd9b10	-0.027051479
107	0x3b2064e2	0.0024474193
108	0xbcab0928	-0.02087839
109	0xbba098d5	-0.0049010315
110	0xbbcae8af	-0.006192289
111	0xbd02dc6f	-0.031948503
112	0xbc58be21	-0.013228924
113	0xbc085b73	-0.008322584
114	0xbc90020f	-0.017579107
115	0xbbc98981	-0.006150425
116	0x39f2e3b4	0.0004632749
117	0xbc7041c8	-0.014664121
118	0x3cabbdc9	0.02096452
119	0xbc36b23d	-0.011150894
120	0xbd09f645	-0.033682127
121	0xbd01d6ac	-0.031698868
122	0xbab2986b	-0.0013625746
123	0x3cae085d	0.021244222
124	0xbc35be6d	-0.011092764
125	0xbca4547c	-0.020059817
126	0x3bfa4751	0.007637896
127	0x3c9c0cfc	0.01904916
128	0xbcd0b1d7	-0.025475426
129	0xbcb1a3da	-0.021684576
130	0x3b751c33	0.0037400841
131	0xba0582d7	-0.0005093044
132	0x3b7cbdcd	0.0038565279
133	0xbba70ca1	-0.005097941
134	0x3ba7b90a	0.005118494
135	0xbcbe0934	-0.023197748
136	0xbd339864	-0.043846503
137	0xbcde6be4	-0.027151056
138	0xbd1359ea	-0.03597442
139	0xbb7336e7	-0.0037111582
140	0xbd048321	-0.032351617
141	0xbc76eee3	-0.0150716035
142	0xbba82599	-0.005131435
143	0xbd3ddda6	-0.04635396
144	0xbc8dce1c	-0.017310195
145	0xbbea5cf5	-0.0071521946
146	0xbcdc58d8	-0.026897833
147	0xbb32bd74	-0.0027273567
148	0x3c1f4ab8	0.009722404
149	0x3c93f999	0.018063353
150	0x3d36207b	0.04446457
151	0x3cb09104	0.021553524
152	0x3c9b7772	0.018977854
153	0x3ccb793a	0.024838079
154	0x3caad302	0.02085257
155	0x3cb66c4c	0.022268437
156	0x3c80c88a	0.015720624
157	0x3c4f9f19	0.012672209
158	0x3c351655	0.011052688
159	0x3c248db5	0.010043551
160	0xbc5d393d	-0.013502416
161	0xbd0d148d	-0.034443427
162	0xbbb6f058	-0.0055828504
163	0x3bc33085	0.0059567117
164	0x3bfcae77	0.0077112275
165	0x3c7dd1d9	0.015491926
166	0xbb823326	-0.0039733825
167	0xbc75d16a	-0.0150035415
168	0xbd3074eb	-0.04308025
169	0xbc33cdd4	-0.010974366
170	0xbd291afe	-0.041285507
171	0x3c26c2b9	0.010178261
172	0x3b91f53d	0.0044542835
173	0x3cacaa52	0.021077309
174	0x3c3015eb	0.010747413
175	0xbc154c2f	-0.009112402
176	0xbc65983c	-0.014013346
177	0xbadab1ce	-0.001668507
178	0x3b44bd21	0.0030019956
179	0xbcd03383	-0.025415188
180	0x3c73c2b1	0.014877961
181	0x3ca51e05	0.020155916
182	0x3d2434c0	0.04008937
183	0x3cf7dbc0	0.030256152
184	0x3b0f2aca	0.0021845573
185	0x3c867007	0.01641084
186	0x3cce5985	0.02518917
187	0x3c97cffa	0.018531788
188	0x3ccc3ef6	0.024932366
189	0x3c3a0878	0.011354558
190	0xbb352a90	-0.0027643777
191	0xbc46d42c	-0.012135547
192	0xbcdfc6fd	-0.027316565
193	0xbc0a250d	-0.008431685
194	0xbd0c509e	-0.03425657
195	0x3c32f107	0.010921723
196	0x3cb41c7a	0.021986235
197	0x3c00d98e	0.007864369
198	0x3c7c22ac	0.015389126
199	0x3c751216	0.014957925
200	0xbd1df283	-0.038561355
201	0xbb19c5b4	-0.0023463788
202	0x3b17f600	0.00231874
203	0xbc47c23c	-0.012192305
204	0x3c3abbe8	0.011397339
205	0x3b38c71e	0.0028194855
206	0xbd137c5e	-0.036007278
207	0xbd19ca1a	-0.037546255
208	0x3c10a19b	0.008827592
209	0xb96a8c50	-0.0002236825
210	0x3a7dfe86	0.0009689111
211	0xbcf1b8ef	-0.029507129
212	0x3c57e030	0.013176009
213	0x3c223a98	0.009901665
214	0xbbea71f2	-0.0071546966
215	0x3b7b73c3	0.003836856
216	0xbc01aa0d	-0.007914078
217	0x3d1edb95	0.03878363
218	0x3c546f01	0.0129659185
219	0xbbee988d	-0.007281369
220	0xbc9113e7	-0.017709685
221	0xbc71c69f	-0.014756828
222	0xbcc8997d	-0.024487251
223	0xbce86e59	-0.02837293
224	0xbc75168e	-0.014958991
225	0xbcb64ea4	-0.022254296
226	0x3be4e87a	0.006985721
227	0x3b02d48e	0.0019963118
228	0xba3611d6	-0.0006945407
229	0x3c7c4c11	0.015398995
230	0x3c8907c6	0.01672734
231	0x3d388dde	0.04505717
232	0xbc97dee4	-0.0185389
233	0xbcb8de6a	-0.022566993
234	0xbb931d69	-0.00448959
235	0x3c56be94	0.013106961
236	0xb903d854	-0.00012573722
237	0xbc9d0917	-0.019169373
238	0xbcfa4883	-0.030552154
239	0x39c7505a	0.00038016104
240	0xbd0d20db	-0.03445516
241	0xbd18bdbb	-0.037290316
242	0xbd1f3ef7	-0.038878407
243	0xbc72931c	-0.014805581
244	0xbb88ca30	-0.0041744933
245	0xbcd5d0b4	-0.026100494
246	0xbd08f928	-0.03344074
247	0xbcf535a8	-0.029932812
248	0x3c37a5e5	0.011208986
249	0x3d0caeff	0.034346577
250	0x3d30bb4c	0.04314737
251	0x3d068c8a	0.032848872
252	0xbbc5664e	-0.0060241586
253	0xbd096ea8	-0.033552796
254	0xbce8466f	-0.028353898
255	0xbc48200e	-0.012214674

fc.bias f4 [10]
0	0x3f0b8e27	0.5451378
1	0xbe81f4d1	-0.25382093
2	0x3eab4d45	0.3345739
3	0x3f25f178	0.6482158
4	0xbe56aec3	-0.20965104
5	0x3ee5f88d	0.44916192
6	0xbee8f505	-0.45499435
7	0xbe960084	-0.29297268
8	0xbcf847e1	-0.030307712
9	0xbf3196d1	-0.6937075
