cifar_net_fcn.pth (torch_old, 123464 bytes, 2 tensors)

fc.weight f4 [10, 3072]
0	0x3d878af9	0.06618304
1	0xbd0fe8ee	-0.03513425
2	0xbe2de42b	-0.1698157
3	0xbd02f27f	-0.031969544
4	0xbdd25b78	-0.102713525
5	0x3cdb14ca	0.026743311
6	0xbc89d493	-0.016824996
7	0xbd786583	-0.060643684
8	0x3db94e5f	0.09048151
9	0xbcf861fd	-0.030320162
10	0xbd0137f6	-0.03154751
11	0x3c966a39	0.018361198
12	0x3ce77ed2	0.028258715
13	0x3d9aac1d	0.07552359
14	0x3cb6b7d2	0.02230445
15	0x3c607213	0.013699072
16	0x3d0befcd	0.03416424
17	0x3d888bdf	0.06667303
18	0xbd8f0d00	-0.069849014
19	0xbe437753	-0.19088487
20	0xbddcbfc8	-0.10778767
21	0xbdc09a0a	-0.094043806
22	0x3d9f21f7	0.0777015
23	0x3c3b36ed	0.01142667
24	0xbdea0368	-0.11426431
25	0xbd818463	-0.06324079
26	0x3c48e907	0.012262589
27	0x3d26c420	0.040714383
28	0x3ded4013	0.11584487
29	0x3d533ce2	0.051571734
30	0x3cfd50e1	0.030922355
31	0x3dc82098	0.09771842
32	0x3d189d94	0.037259653
33	0x3dcd6216	0.10028474
34	0xbc2ac066	-0.010421848
35	0x3e06efaf	0.1317737
36	0x3de9af51	0.11410392
37	0x3c978777	0.018497212
38	0x3cd2a8e7	0.025715305
39	0x3db4fc97	0.0883724
40	0x3d2c2687	0.04202893
41	0xbdb1c3aa	-0.08679898
42	0xbbcce8fd	-0.0062533603
43	0x3dffeb49	0.12496049
44	0x3d9323d3	0.07184567
45	0x3d7fa393	0.062411856
46	0x3e3f9535	0.18709262
47	0x3e1ed229	0.15509857
48	0x3db3240f	0.08747112
49	0x3d78b2c4	0.06071736
50	0x3d459ff5	0.04824825
51	0xbdab4225	-0.083622254
52	0xbcbffe84	-0.023436792
53	0xbcfdf921	-0.031002583
54	0x3dad8b3c	0.084738225
55	0x3c05b4a5	0.008160745
56	0xbd828363	-0.06372716
57	0xbcd099cb	-0.02546396
58	0xbdee8b5d	-0.11647675
59	0xbe123b8b	-0.14280526
60	0x3ca6079d	0.020267302
61	0xbc4957e8	-0.012289025
62	0x3d886eae	0.066617355
63	0x3e28a176	0.16467842
64	0xbe0ea197	-0.13928829
65	0x3d0e48b8	0.03473732
66	0x3cdb927d	0.02680325
67	0x3d035116	0.03205975
68	0x3e4ff39a	0.2030777
69	0xbbaff6dd	-0.0053700046
70	0xbde942ab	-0.11389669
71	0xbddf6366	-0.109076306
72	0xbcc6c5f3	-0.024264311
73	0xbe02d16d	-0.12775202
74	0xbe3cd8db	-0.18442099
75	0x3d5a3ad7	0.05327877
76	0xbc86ef70	-0.016471595
77	0xbe1db044	-0.15399271
78	0xbdba6383	-0.091010116
79	0xbd50ffe6	-0.051025294
80	0xbcd231ab	-0.02565845
81	0xbdbab5d5	-0.09116713
82	0x3c23c4bf	0.009995638
83	0xbdc78760	-0.097426176
84	0xbddb7822	-0.10716273
85	0xbde9ffc0	-0.114257336
86	0x3db0e430	0.08637273
87	0xbc1f105d	-0.009708491
88	0xbd32bff3	-0.04364009
89	0xbcfbe6b5	-0.030749658
90	0x3d787b87	0.06066468
91	0x3e0d30e1	0.13788177
92	0x3dada0f5	0.08477966
93	0xbd39bf3b	-0.045348387
94	0xbd39ac13	-0.04533012
95	0x3e17bf8f	0.14819168
96	0xbe1e940c	-0.15486163
97	0x3dbc656d	0.09199033
98	0x3d6e311e	0.05815231
99	0x3d690198	0.056886286
100	0x3df9c6b5	0.121961035
101	0x3c15a54b	0.009133647
102	0x3d6aacc7	0.05729368
103	0xbd36191b	-0.044457536
104	0xbd878482	-0.06617071
105	0xbe218457	-0.1577314
106	0xbd7202d3	-0.059084725
107	0x3e1e0dee	0.15435001
108	0x3b96858d	0.004593557
109	0x3c9fa686	0.019488584
110	0xbc58542c	-0.013203662
111	0xbd3def72	-0.04637093
112	0xbd2c2a60	-0.0420326
113	0x3d1fd15f	0.03901803
114	0x3d451127	0.04811206
115	0xbd45ea23	-0.048318993
116	0x3c8a5d26	0.01689012
117	0x3dc622aa	0.096745804
118	0x3d804e03	0.062648796
119	0xbd4b6bb5	-0.049663264
120	0xbd2eccde	-0.042675845
121	0xbdfc8d78	-0.123316705
122	0x3a8670a8	0.0010256963
123	0x3d053dd6	0.032529674
124	0xbdb209af	-0.08693253
125	0xbda28786	-0.07936005
126	0x3c35d451	0.011097983
127	0x3df304c3	0.118661426
128	0xbda14571	-0.07874573
129	0xbd49094f	-0.049081143
130	0x3d6ae84a	0.057350434
131	0xbdd78f56	-0.10525386
132	0x3d63baad	0.05559795
133	0x3d011f29	0.031523857
134	0xbe039fa9	-0.12853874
135	0xbe178ad4	-0.14799052
136	0xbdbe42d9	-0.09290094
137	0xbe110f11	-0.14165904
138	0xbd2e9927	-0.042626526
139	0x3e17ac39	0.14811791
140	0x3c85557a	0.01627611
141	0x3d8144d8	0.06311959
142	0x3bdec8fe	0.0067988625
143	0xbdc1aa06	-0.094562575
144	0xbdc54fcb	-0.0963436
145	0xbcaffdf0	-0.021483392
146	0xbdd1f590	-0.102519155
147	0x3df9bdbc	0.12194392
148	0x3d4faa84	0.050699726
149	0x3d65762c	0.0560209
150	0x3e23313a	0.15936747
151	0x3d44240b	0.047885936
152	0x3da8218b	0.08209523
153	0x3d00534c	0.031329438
154	0x3d555c2c	0.052089855
155	0x3d7d75ce	0.061879925
156	0xbdc5a276	-0.096501276
157	0xbc8f014e	-0.017456677
158	0x3c64cf70	0.013965473
159	0xbda0a3b4	-0.07843724
160	0x3d2565c1	0.040380243
161	0xbd692ed5	-0.056929428
162	0xbc2b4af2	-0.01045488
163	0x3cf891d3	0.030342972
164	0x3cb1c8ee	0.021702256
165	0x3d97b265	0.07407073
166	0x3c1e5653	0.009664136
167	0xbda80514	-0.082040936
168	0xbdef638f	-0.11688911
169	0x3d7d7343	0.0618775
170	0xbcf7238e	-0.030168321
171	0x3e23a9fe	0.15982816
172	0x3d86f9ed	0.06590638
173	0x3dd11eb9	0.10210938
174	0x3c4a64e4	0.012353156
175	0xbd17a0e7	-0.037018683
176	0xbdb29206	-0.08719258
177	0xbdc19663	-0.09452512
178	0x3ca47780	0.020076513
179	0xbc95d1e5	-0.018288562
180	0x3d9b3ca0	0.07579923
181	0x3d29b284	0.04143001
182	0x3d9c5034	0.07632485
183	0x3ca8c836	0.02060328
184	0xbd8b5cb8	-0.06804794
185	0x3d8020c5	0.0625625
186	0x3debe792	0.11518778
187	0xbd40da74	-0.047083333
188	0x3d8f6227	0.07001143
189	0x3d8080ab	0.062745415
190	0x3d96028b	0.07324704
191	0x3cc7ff84	0.024413832
192	0x3c9873c6	0.018609893
193	0x3da7242e	0.081611976
194	0xbe473ab6	-0.1945599
195	0xbc8d3112	-0.017235313
196	0x3c46876d	0.012117249
197	0x3cf9028d	0.030396724
198	0x3d87a88b	0.06623944
199	0xbca62119	-0.020279454
200	0xbe19fc24	-0.1503759
201	0x3d427344	0.047473207
202	0x3d9ecdba	0.07754083
203	0x3daf5d1b	0.0856268
204	0x3c9fae22	0.019492213
205	0xbd8b6205	-0.06805805
206	0xbd83e0df	-0.06439375
207	0xbd9e8487	-0.07740121
208	0xbc97dc30	-0.01853761
209	0xbd9e9192	-0.07742609
210	0x3b663dc6	0.0035132035
211	0xbdb2aa36	-0.087238714
212	0x3d8b5d92	0.068049565
213	0xbcb3c349	-0.021943705
214	0x3bd9c05b	0.006645245
215	0xbd793228	-0.06083885
216	0xbe31f2fc	-0.17377847
217	0x3db98e85	0.090603866
218	0x3bb9f882	0.0056753764
219	0xbd040501	-0.032231335
220	0xbda3293c	-0.07966849
221	0xbda5c805	-0.08094791
222	0xbd4e5915	-0.050377924
223	0xbdc253e0	-0.09488654
224	0x3d8faf08	0.070158064
225	0x3c17f6d9	0.009275162
226	0x3d9d3a66	0.07677154
227	0xbdba36e5	-0.090925016
228	0x3d054a1a	0.032541372
229	0x3da45c4d	0.080254175
230	0xbd3265b3	-0.04355402
231	0x3d52d95a	0.051476814
232	0xbdcb50ad	-0.09927497
233	0xbd9e890a	-0.07740982
234	0xbdb79c2a	-0.08965333
235	0x3d503ab9	0.050837252
236	0x3dbd93a7	0.09256678
237	0xbccbe4b2	-0.024889324
238	0x3d6be655	0.05759271
239	0x3dad7eae	0.08471428
240	0xbdbc3be7	-0.09191113
241	0xbdf3da92	-0.11906923
242	0x3d4b2a7d	0.049601067
243	0x3dedcad1	0.1161095
244	0x3d7d7417	0.06187829
245	0xbcfbbf2c	-0.030730806
246	0x3cbbed8a	0.022940416
247	0xbd86d0cf	-0.06582796
248	0xbcbd4af0	-0.023107022
249	0x3d95b582	0.073100105
250	0x3dce23dd	0.10065434
251	0x3e320422	0.17384389
252	0xbd60e9d2	-0.05491049
253	0xbdf4ad72	-0.119471446
254	0xbdb2ab44	-0.087240726
255	0xbb5cd470	-0.0033695959

fc.bias f4 [10]
0	0x3f24548c	0.6419151
1	0xbeabafff	-0.33532712
2	0x3eea5cf1	0.45774034
3	0x3f29f1a6	0.6638435
4	0xbdf08c51	-0.11745513
5	0x3f1a851c	0.6035936
6	0xbf0d27cc	-0.5513885
7	0xbebbfe57	-0.36717483
8	0xbd26211a	-0.04055891
9	0xbf69ded2	-0.9135562
