cifar_net_fcn.pth (torch_old, 123464 bytes, 2 tensors)

fc.weight f4 [10, 3072]
0	0x3f1cdc66	0.612738
1	0x3d5345e2	0.051580317
2	0xbe2c0610	-0.16799188
3	0x3ea2615d	0.31714907
4	0xbfaba765	-1.341046
5	0x3f356abf	0.70866007
6	0xbec264c5	-0.37967506
7	0xbf42a24c	-0.76028895
8	0x3f6888ab	0.9083354
9	0xbeee3c81	-0.46530536
10	0x3e7c202a	0.24621645
11	0xbe97ef93	-0.29674968
12	0xbe698767	-0.22805558
13	0x3f0887d3	0.5333225
14	0x3e268d8a	0.1626493
15	0xbee9855c	-0.45609558
16	0x3e88e0fc	0.2673415
17	0x3e420449	0.18946947
18	0xbde5027e	-0.11182116
19	0xbedf93d5	-0.43667474
20	0x3e6549b9	0.22391404
21	0xbea4e0ce	-0.32202762
22	0x3f28d86b	0.6595523
23	0x3eb95686	0.36198825
24	0xbf9277f1	-1.1442853
25	0xbebc9e01	-0.36839297
26	0x3dca567d	0.098797776
27	0x3f28eccf	0.6598634
28	0x3ea23ea7	0.31688425
29	0xbc3a2a80	-0.011362672
30	0xbdf4c0e0	-0.119508505
31	0x3da338c1	0.07969809
32	0x3e122f99	0.1427597
33	0x3f44974e	0.7679337
34	0xbf42d2cc	-0.761029
35	0x3f4695c3	0.7757227
36	0xbe2ecf4b	-0.17071263
37	0x3eb466ff	0.3523483
38	0x3e51def1	0.20495202
39	0x3f0ff5dc	0.56234527
40	0x3eb7500b	0.35803255
41	0xbe8d2d5c	-0.2757367
42	0x3e75c060	0.23999166
43	0x3f43ebe4	0.76531816
44	0xbe1c14f6	-0.15242371
45	0x3e964a0a	0.29353362
46	0x3f547242	0.82986844
47	0x3e36008e	0.17773649
48	0x3f787eb6	0.97068346
49	0xbdc86b25	-0.09786061
50	0xbf067fd7	-0.5253882
51	0xbf18ab8f	-0.5963678
52	0xbda228d2	-0.07917942
53	0xbec571b7	-0.3856332
54	0x3e8a1e1e	0.26976103
55	0x3ed76433	0.42068633
56	0xbe90461e	-0.28178495
57	0x3eb1788b	0.3466228
58	0xbf1d2e8f	-0.6139917
59	0xbf5e6585	-0.86873657
60	0x3ec1a0f9	0.37818125
61	0xbeb1671f	-0.34648988
62	0xbe03d00b	-0.12872331
63	0x3e9056c9	0.28191212
64	0xbf4396b5	-0.76401836
65	0xbdca8df5	-0.098903574
66	0xbefd0b28	-0.49422574
67	0xbe2599d9	-0.1617197
68	0x3ed01973	0.40644416
69	0xbec1adc5	-0.37827888
70	0xbe55d227	-0.20880948
71	0xbf14c72f	-0.5811643
72	0x3e943f4d	0.28954545
73	0xbf5a460b	-0.8526313
74	0xbfa34a20	-1.2756996
75	0x3e80d760	0.25164318
76	0x3dc44a84	0.09584525
77	0xbfa11c65	-1.258679
78	0xbf1dea34	-0.6168549
79	0xbf2433c6	-0.641415
80	0x3eea4548	0.45755982
81	0xbee37f22	-0.44432932
82	0x3c1040c4	0.008804504
83	0x3e65648e	0.2240164
84	0xbd169a52	-0.036768265
85	0xbf0358bd	-0.5130728
86	0xbd53685b	-0.051613193
87	0x3e98311f	0.29724976
88	0xbe438789	-0.19094671
89	0x3f05618c	0.5210197
90	0xbf311afc	-0.691818
91	0x3f67de64	0.90573716
92	0x3dfd4ed5	0.12368552
93	0xbd7c0992	-0.061532564
94	0xbeb761a7	-0.3581669
95	0x3f3ab1a0	0.72927284
96	0xbf3cbbc0	-0.73723984
97	0x3f3b8106	0.7324375
98	0x3e133e3e	0.14379212
99	0x3dca5cb5	0.09880964
100	0x3f5dbbdf	0.86614794
101	0xbd9dad90	-0.0769912
102	0x3ed1662d	0.40898266
103	0x3e494ee2	0.19658998
104	0x3e87e84a	0.2654441
105	0xbe36cf2b	-0.17852466
106	0xbd76d9fa	-0.060266472
107	0x3f8539ef	1.0408305
108	0x3bd91c2c	0.006625673
109	0x3d901e4f	0.07037031
110	0x3f4bc778	0.7960124
111	0x3ed0a3ff	0.4075012
112	0xbead0688	-0.33794045
113	0x3c8fbf0b	0.017547151
114	0x3e691b59	0.22764339
115	0x3e66d022	0.22540334
116	0xbf07679d	-0.52892476
117	0x3fa6f78c	1.3044295
118	0xbf3b79cd	-0.7323273
119	0xbeda28d6	-0.4260928
120	0xbf355d0d	-0.7084511
121	0x3f0c97d4	0.5491917
122	0xbf08dbc5	-0.5346034
123	0x3e8bb85d	0.27289096
124	0xbeaf6644	-0.3425771
125	0xbed5ed87	-0.4178278
126	0x3f4de617	0.80429214
127	0x3f48db6c	0.7845981
128	0xbebc3d5e	-0.3676557
129	0x3da06e16	0.07833497
130	0x3f172a7c	0.590492
131	0xbf846a2e	-1.0344903
132	0x3f2b4db7	0.6691546
133	0xbeeb081e	-0.4590463
134	0xbf41cca0	-0.7570286
135	0xbe0a5a64	-0.13511044
136	0xbd286bc1	-0.041118387
137	0xbfa2ab65	-1.2708555
138	0xbc85f6b7	-0.016352994
139	0x3d57f260	0.05272138
140	0x3e4989be	0.1968145
141	0xbea0c68e	-0.31401485
142	0xbe564de7	-0.20928155
143	0xbf0489b5	-0.51772624
144	0xbf2ffc20	-0.6874409
145	0x3f0f667a	0.5601574
146	0xbdf57835	-0.11985818
147	0x3f12aff8	0.57299757
148	0xbef83c29	-0.484834
149	0x3f41a83c	0.7564733
150	0x3d6f7585	0.058461685
151	0x3f30066a	0.6875979
152	0x3e8ef8e5	0.27924266
153	0x3ed97c38	0.42477584
154	0xbe05fc95	-0.13084634
155	0x3ee9ba7c	0.4565009
156	0xbeec1af7	-0.46114323
157	0xbee300c0	-0.4433651
158	0xbee0ddd6	-0.43919247
159	0xbfa0f315	-1.2574183
160	0xbd5dd0d6	-0.05415424
161	0x3d776b2d	0.060404945
162	0x3efed00b	0.497681
163	0xbd902595	-0.07038418
164	0xbea98e0e	-0.33116192
165	0x3eb7a7be	0.35870165
166	0x3eeedf43	0.4665471
167	0x3ee738f7	0.45160648
168	0x3cb1eb1c	0.021718554
169	0x3f4f0a23	0.8087484
170	0x3e01244c	0.12611502
171	0xbe3df786	-0.18551454
172	0x3ef0ab76	0.47005814
173	0x3fb25b7d	1.393417
174	0xbe35f1d5	-0.17768033
175	0xbed36835	-0.4129044
176	0xbe554512	-0.2082713
177	0xbcd03d7a	-0.02541994
178	0xbdb43ae7	-0.08800297
179	0xbece7f98	-0.4033172
180	0x3c4754a7	0.012166179
181	0xbeb90f5b	-0.36144528
182	0x3e98e5c9	0.29862812
183	0xbe9eb95e	-0.310008
184	0x3e062e78	0.13103664
185	0xbebcc134	-0.36866152
186	0x3f85389a	1.0407898
187	0xbf924812	-1.1428244
188	0x3ec9d0b1	0.3941703
189	0x3f71289f	0.9420261
190	0x3ed67302	0.4188462
191	0x3e024135	0.12720187
192	0x3e18e9d2	0.14932945
193	0x3f2fd8ea	0.6869036
194	0xbfc8a1b5	-1.5674349
195	0x3e136939	0.14395608
196	0xbf0c3614	-0.54770017
197	0x3db9e648	0.09077126
198	0xbea32b23	-0.31868848
199	0xbf244c14	-0.64178586
200	0xbd31cbc9	-0.043407235
201	0xbed8cd93	-0.4234434
202	0x3f26bdf6	0.6513361
203	0x3e77735e	0.24165103
204	0xbee5e1b4	-0.4489876
205	0xbfb99ef8	-1.4501638
206	0xbe8f7a8a	-0.28023177
207	0x3ef164d6	0.47147244
208	0x3e97a155	0.29615274
209	0xbe37a5fd	-0.17934413
210	0xbf3f917a	-0.74831355
211	0x3d5be73e	0.053687327
212	0x3f69c5e2	0.9131757
213	0xbed908c2	-0.42389494
214	0x3e9feb13	0.31234035
215	0xbf603c78	-0.8759227
216	0xbf507cfc	-0.8144071
217	0x3f0978dc	0.5370004
218	0x3dc1800f	0.09448253
219	0x3f15bedc	0.58494353
220	0xbf27c214	-0.65530515
221	0x3efcd111	0.49378255
222	0xbeeeacd9	-0.46616247
223	0xbe844e2d	-0.25840893
224	0x3f24a279	0.64310414
225	0xbede0217	-0.4336097
226	0x3ec243a0	0.3794222
227	0x3ec3c895	0.3823897
228	0x3ee38483	0.44437036
229	0x3f335b88	0.7006154
230	0xbe0927c7	-0.1339408
231	0xbe045d7a	-0.12926283
232	0xbf0d9ea5	-0.553202
233	0x3e4550ca	0.192691
234	0xbedaa202	-0.42701727
235	0x3f210bc6	0.6290859
236	0x3f37fb7d	0.71868116
237	0xbd2e1aba	-0.042505957
238	0x3f22b32c	0.63554645
239	0x3e994ec8	0.29942918
240	0xbee5d168	-0.44886327
241	0xbedbea1b	-0.42952046
242	0x3ee9b4d4	0.45645773
243	0x3f728ed8	0.9474921
244	0x3d245e74	0.04012914
245	0xbee2b60c	-0.44279516
246	0x3e4350e5	0.19073828
247	0x3f5646d6	0.8370184
248	0xbca8bca5	-0.020597765
249	0x3ddcf9cc	0.107898325
250	0xbe4e6ea0	-0.20159388
251	0x3f34f016	0.7067884
252	0xbe0eda17	-0.13950382
253	0xbfce7594	-1.6129632
254	0xbdb14042	-0.08654834
255	0x3f364eb5	0.7121385

fc.bias f4 [10]
0	0x3f240c6e	0.64081466
1	0xbed59272	-0.4171329
2	0x3f11b025	0.569094
3	0x3f46b30d	0.7761696
4	0xbdae7f10	-0.08520329
5	0x3f2878ed	0.6580952
6	0xbf215838	-0.63025236
7	0xbec240f7	-0.3794019
8	0xbd6d3cb5	-0.057919223
9	0xbf84290d	-1.0325028
